./run.sh
OPENCL ACTIVATED
NOTE: This GSX library has the time limitation by reason of an evaluation module.
INFO: complete to make CL properties
layer     filters    size              input                output
    0 conv     16  3 x 3 / 1   416 x 416 x   3   ->   416 x 416 x  16
    1 max          2 x 2 / 2   416 x 416 x  16   ->   208 x 208 x  16
    2 conv     32  3 x 3 / 1   208 x 208 x  16   ->   208 x 208 x  32
    3 max          2 x 2 / 2   208 x 208 x  32   ->   104 x 104 x  32
    4 conv     64  3 x 3 / 1   104 x 104 x  32   ->   104 x 104 x  64
    5 max          2 x 2 / 2   104 x 104 x  64   ->    52 x  52 x  64
    6 conv    128  3 x 3 / 1    52 x  52 x  64   ->    52 x  52 x 128
    7 max          2 x 2 / 2    52 x  52 x 128   ->    26 x  26 x 128
    8 conv    256  3 x 3 / 1    26 x  26 x 128   ->    26 x  26 x 256
    9 max          2 x 2 / 2    26 x  26 x 256   ->    13 x  13 x 256
   10 conv    512  3 x 3 / 1    13 x  13 x 256   ->    13 x  13 x 512
   11 max          2 x 2 / 1    13 x  13 x 512   ->    13 x  13 x 512
   12 conv   1024  3 x 3 / 1    13 x  13 x 512   ->    13 x  13 x1024
   13 conv    512  3 x 3 / 1    13 x  13 x1024   ->    13 x  13 x 512
   14 conv    425  1 x 1 / 1    13 x  13 x 512   ->    13 x  13 x 425
   15 detection
mask_scale: Using default '1.000000'
workspace_size: 24920064
sizeof(float): 4
Loading weights from tiny-yolo.weights...Done!
	layer_0 : <forward_convolutional_layer_opencl>
gws : 416 416 16
m : 16, k : 27
conv ocl time : 0.048548 sec
l.workspace_size: 18690048
layer 0: Predicted in 0.048622 seconds.

	layer_1 : <forward_maxpool_layer>
…
