…
NOTE: This GSX library has the time limitation by reason of an evaluation module.
Platform: PowerVR Rogue
Vendor: Imagination Technologies
Version: OpenCL 1.2 
	-------------------------
		Name: PowerVR Rogue GX6650
		Version: OpenCL C 1.2 
		Max. Compute Units: 6
		Local Memory Size: 3 KB
		Global Memory Size: 512 MB
		Max Alloc Size: 256 MB
		Max Work-group Total Size: 512
		Max Work-group Dims: ( 512 512 512 )
	-------------------------
create command_queue
create Program
clBuildProgram
INFO: complete to make CL properties
layer     filters    size              input                output
    0 conv     16  3 x 3 / 1   416 x 416 x   3   ->   416 x 416 x  16
    1 max          2 x 2 / 2   416 x 416 x  16   ->   208 x 208 x  16
    2 conv     32  3 x 3 / 1   208 x 208 x  16   ->   208 x 208 x  32
    3 max          2 x 2 / 2   208 x 208 x  32   ->   104 x 104 x  32
    4 conv     64  3 x 3 / 1   104 x 104 x  32   ->   104 x 104 x  64
    5 max          2 x 2 / 2   104 x 104 x  64   ->    52 x  52 x  64
    6 conv    128  3 x 3 / 1    52 x  52 x  64   ->    52 x  52 x 128
    7 max          2 x 2 / 2    52 x  52 x 128   ->    26 x  26 x 128
    8 conv    256  3 x 3 / 1    26 x  26 x 128   ->    26 x  26 x 256
    9 max          2 x 2 / 2    26 x  26 x 256   ->    13 x  13 x 256
   10 conv    512  3 x 3 / 1    13 x  13 x 256   ->    13 x  13 x 512
   11 max          2 x 2 / 1    13 x  13 x 512   ->    13 x  13 x 512
   12 conv   1024  3 x 3 / 1    13 x  13 x 512   ->    13 x  13 x1024
   13 conv    512  3 x 3 / 1    13 x  13 x1024   ->    13 x  13 x 512
   14 conv    425  1 x 1 / 1    13 x  13 x 512   ->    13 x  13 x 425
   15 detection
mask_scale: Using default '1.000000'
workspace_size: 24920064
sizeof(float): 4
Loading weights from tiny-yolo.weights...Done!
running test detector
	layer_0 : <forward_convolutional_layer_opencl>
alloc done
move time : 0.000000
l.workspace_size: 18690048
layer 0: Predicted in 0.010505 seconds.

	layer_1 : <forward_maxpool_layer>
…
